…
Signals: cerquick_rotation_EFITRT1, cerquick_temp_EFITRT1, curr, dens, gasA, pinj, temp, thomson_dens_EFITRT1, thomson_temp_EFITRT1, tinj
Number of useable shots:  9162
Number of shots used:  1000
Total number of timesteps:  107038
Shots with Complete NaN: 
Total number of samples:  29944
Number of training samples:  23955
Number of validation samples:  5989
(?, 4, 4)
(?, 8, 4)
(?, 33, 4)
2
__________________________________________________________________________________________________
Layer (type)                    Output Shape         Param #     Connected to                     
==================================================================================================
input_past_pinj (InputLayer)    (None, 8)            0                                            
__________________________________________________________________________________________________
input_past_tinj (InputLayer)    (None, 8)            0                                            
__________________________________________________________________________________________________
input_past_curr (InputLayer)    (None, 8)            0                                            
__________________________________________________________________________________________________
input_past_gasA (InputLayer)    (None, 8)            0                                            
__________________________________________________________________________________________________
input_future_pinj (InputLayer)  (None, 4)            0                                            
__________________________________________________________________________________________________
input_future_tinj (InputLayer)  (None, 4)            0                                            
__________________________________________________________________________________________________
input_future_curr (InputLayer)  (None, 4)            0                                            
__________________________________________________________________________________________________
input_future_gasA (InputLayer)  (None, 4)            0                                            
__________________________________________________________________________________________________
input_thomson_temp_EFITRT1 (Inp (None, 1, 33)        0                                            
__________________________________________________________________________________________________
input_thomson_dens_EFITRT1 (Inp (None, 1, 33)        0                                            
__________________________________________________________________________________________________
input_cerquick_temp_EFITRT1 (In (None, 1, 33)        0                                            
__________________________________________________________________________________________________
input_cerquick_rotation_EFITRT1 (None, 1, 33)        0                                            
__________________________________________________________________________________________________
reshape_7 (Reshape)             (None, 8, 1)         0           input_past_pinj[0][0]            
__________________________________________________________________________________________________
reshape_9 (Reshape)             (None, 8, 1)         0           input_past_tinj[0][0]            
__________________________________________________________________________________________________
reshape_11 (Reshape)            (None, 8, 1)         0           input_past_curr[0][0]            
__________________________________________________________________________________________________
reshape_13 (Reshape)            (None, 8, 1)         0           input_past_gasA[0][0]            
__________________________________________________________________________________________________
reshape_6 (Reshape)             (None, 4, 1)         0           input_future_pinj[0][0]          
__________________________________________________________________________________________________
reshape_8 (Reshape)             (None, 4, 1)         0           input_future_tinj[0][0]          
__________________________________________________________________________________________________
reshape_10 (Reshape)            (None, 4, 1)         0           input_future_curr[0][0]          
__________________________________________________________________________________________________
reshape_12 (Reshape)            (None, 4, 1)         0           input_future_gasA[0][0]          
__________________________________________________________________________________________________
reshape_1 (Reshape)             (None, 1, 33, 1)     0           input_thomson_temp_EFITRT1[0][0] 
__________________________________________________________________________________________________
reshape_2 (Reshape)             (None, 1, 33, 1)     0           input_thomson_dens_EFITRT1[0][0] 
__________________________________________________________________________________________________
reshape_3 (Reshape)             (None, 1, 33, 1)     0           input_cerquick_temp_EFITRT1[0][0]
__________________________________________________________________________________________________
reshape_4 (Reshape)             (None, 1, 33, 1)     0           input_cerquick_rotation_EFITRT1[0
__________________________________________________________________________________________________
concatenate_3 (Concatenate)     (None, 8, 4)         0           reshape_7[0][0]                  
                                                                 reshape_9[0][0]                  
                                                                 reshape_11[0][0]                 
                                                                 reshape_13[0][0]                 
__________________________________________________________________________________________________
concatenate_2 (Concatenate)     (None, 4, 4)         0           reshape_6[0][0]                  
                                                                 reshape_8[0][0]                  
                                                                 reshape_10[0][0]                 
                                                                 reshape_12[0][0]                 
__________________________________________________________________________________________________
concatenate_1 (Concatenate)     (None, 1, 33, 4)     0           reshape_1[0][0]                  
                                                                 reshape_2[0][0]                  
                                                                 reshape_3[0][0]                  
                                                                 reshape_4[0][0]                  
__________________________________________________________________________________________________
lstm_1 (LSTM)                   (None, 33)           5016        concatenate_3[0][0]              
__________________________________________________________________________________________________
lstm_2 (LSTM)                   (None, 33)           5016        concatenate_2[0][0]              
__________________________________________________________________________________________________
reshape_5 (Reshape)             (None, 33, 4)        0           concatenate_1[0][0]              
__________________________________________________________________________________________________
reshape_14 (Reshape)            (None, 33, 1)        0           lstm_1[0][0]                     
__________________________________________________________________________________________________
reshape_15 (Reshape)            (None, 33, 1)        0           lstm_2[0][0]                     
__________________________________________________________________________________________________
concatenate_4 (Concatenate)     (None, 33, 6)        0           reshape_5[0][0]                  
                                                                 reshape_14[0][0]                 
                                                                 reshape_15[0][0]                 
__________________________________________________________________________________________________
conv1d_1 (Conv1D)               (None, 33, 8)        104         concatenate_4[0][0]              
__________________________________________________________________________________________________
conv1d_7 (Conv1D)               (None, 33, 8)        104         concatenate_4[0][0]              
__________________________________________________________________________________________________
conv1d_2 (Conv1D)               (None, 33, 16)       528         conv1d_1[0][0]                   
__________________________________________________________________________________________________
conv1d_8 (Conv1D)               (None, 33, 16)       528         conv1d_7[0][0]                   
__________________________________________________________________________________________________
conv1d_3 (Conv1D)               (None, 33, 16)       2064        conv1d_2[0][0]                   
__________________________________________________________________________________________________
conv1d_9 (Conv1D)               (None, 33, 16)       2064        conv1d_8[0][0]                   
__________________________________________________________________________________________________
concatenate_5 (Concatenate)     (None, 33, 40)       0           conv1d_1[0][0]                   
                                                                 conv1d_2[0][0]                   
                                                                 conv1d_3[0][0]                   
__________________________________________________________________________________________________
concatenate_6 (Concatenate)     (None, 33, 40)       0           conv1d_7[0][0]                   
                                                                 conv1d_8[0][0]                   
                                                                 conv1d_9[0][0]                   
__________________________________________________________________________________________________
conv1d_4 (Conv1D)               (None, 33, 16)       2576        concatenate_5[0][0]              
__________________________________________________________________________________________________
conv1d_10 (Conv1D)              (None, 33, 16)       2576        concatenate_6[0][0]              
__________________________________________________________________________________________________
conv1d_5 (Conv1D)               (None, 33, 8)        520         conv1d_4[0][0]                   
__________________________________________________________________________________________________
conv1d_11 (Conv1D)              (None, 33, 8)        520         conv1d_10[0][0]                  
__________________________________________________________________________________________________
conv1d_6 (Conv1D)               (None, 33, 1)        33          conv1d_5[0][0]                   
__________________________________________________________________________________________________
conv1d_12 (Conv1D)              (None, 33, 1)        33          conv1d_11[0][0]                  
__________________________________________________________________________________________________
target_temp (Reshape)           (None, 33)           0           conv1d_6[0][0]                   
__________________________________________________________________________________________________
target_dens (Reshape)           (None, 33)           0           conv1d_12[0][0]                  
==================================================================================================
Total params: 21,682
Trainable params: 21,682
Non-trainable params: 0
__________________________________________________________________________________________________
Epoch 1/100
 - 145s - loss: 0.4499 - target_temp_loss: 0.1693 - target_dens_loss: 0.280
…
