…
Signals: cerquick_rotation_EFITRT1, cerquick_temp_EFITRT1, curr, dens, gasA, pinj, temp, thomson_dens_EFITRT1, thomson_temp_EFITRT1, tinj
Number of useable shots:  9162
Number of shots used:  1000
Total number of timesteps:  107038
Shots with Complete NaN: 
Total number of samples:  29944
Number of training samples:  23955
Number of validation samples:  5989
__________________________________________________________________________________________________
Layer (type)                    Output Shape         Param #     Connected to                     
==================================================================================================
input_past_pinj (InputLayer)    (None, 8)            0                                            
__________________________________________________________________________________________________
input_future_pinj (InputLayer)  (None, 4)            0                                            
__________________________________________________________________________________________________
input_past_tinj (InputLayer)    (None, 8)            0                                            
__________________________________________________________________________________________________
input_future_tinj (InputLayer)  (None, 4)            0                                            
__________________________________________________________________________________________________
input_past_curr (InputLayer)    (None, 8)            0                                            
__________________________________________________________________________________________________
input_future_curr (InputLayer)  (None, 4)            0                                            
__________________________________________________________________________________________________
input_past_gasA (InputLayer)    (None, 8)            0                                            
__________________________________________________________________________________________________
input_future_gasA (InputLayer)  (None, 4)            0                                            
__________________________________________________________________________________________________
concatenate_2 (Concatenate)     (None, 12)           0           input_past_pinj[0][0]            
                                                                 input_future_pinj[0][0]          
__________________________________________________________________________________________________
concatenate_3 (Concatenate)     (None, 12)           0           input_past_tinj[0][0]            
                                                                 input_future_tinj[0][0]          
__________________________________________________________________________________________________
concatenate_4 (Concatenate)     (None, 12)           0           input_past_curr[0][0]            
                                                                 input_future_curr[0][0]          
__________________________________________________________________________________________________
concatenate_5 (Concatenate)     (None, 12)           0           input_past_gasA[0][0]            
                                                                 input_future_gasA[0][0]          
__________________________________________________________________________________________________
reshape_6 (Reshape)             (None, 12, 1)        0           concatenate_2[0][0]              
__________________________________________________________________________________________________
reshape_7 (Reshape)             (None, 12, 1)        0           concatenate_3[0][0]              
__________________________________________________________________________________________________
reshape_8 (Reshape)             (None, 12, 1)        0           concatenate_4[0][0]              
__________________________________________________________________________________________________
reshape_9 (Reshape)             (None, 12, 1)        0           concatenate_5[0][0]              
__________________________________________________________________________________________________
concatenate_6 (Concatenate)     (None, 12, 4)        0           reshape_6[0][0]                  
                                                                 reshape_7[0][0]                  
                                                                 reshape_8[0][0]                  
                                                                 reshape_9[0][0]                  
__________________________________________________________________________________________________
dense_1 (Dense)                 (None, 12, 16)       80          concatenate_6[0][0]              
__________________________________________________________________________________________________
input_thomson_temp_EFITRT1 (Inp (None, 1, 33)        0                                            
__________________________________________________________________________________________________
input_thomson_dens_EFITRT1 (Inp (None, 1, 33)        0                                            
__________________________________________________________________________________________________
input_cerquick_temp_EFITRT1 (In (None, 1, 33)        0                                            
__________________________________________________________________________________________________
input_cerquick_rotation_EFITRT1 (None, 1, 33)        0                                            
__________________________________________________________________________________________________
dense_2 (Dense)                 (None, 12, 32)       544         dense_1[0][0]                    
__________________________________________________________________________________________________
reshape_1 (Reshape)             (None, 1, 33, 1)     0           input_thomson_temp_EFITRT1[0][0] 
__________________________________________________________________________________________________
reshape_2 (Reshape)             (None, 1, 33, 1)     0           input_thomson_dens_EFITRT1[0][0] 
__________________________________________________________________________________________________
reshape_3 (Reshape)             (None, 1, 33, 1)     0           input_cerquick_temp_EFITRT1[0][0]
__________________________________________________________________________________________________
reshape_4 (Reshape)             (None, 1, 33, 1)     0           input_cerquick_rotation_EFITRT1[0
__________________________________________________________________________________________________
dense_3 (Dense)                 (None, 12, 64)       2112        dense_2[0][0]                    
__________________________________________________________________________________________________
concatenate_1 (Concatenate)     (None, 1, 33, 4)     0           reshape_1[0][0]                  
                                                                 reshape_2[0][0]                  
                                                                 reshape_3[0][0]                  
                                                                 reshape_4[0][0]                  
__________________________________________________________________________________________________
lstm_1 (LSTM)                   (None, 128)          98816       dense_3[0][0]                    
__________________________________________________________________________________________________
conv2d_1 (Conv2D)               (None, 1, 33, 16)    144         concatenate_1[0][0]              
__________________________________________________________________________________________________
reshape_10 (Reshape)            (None, 128, 1)       0           lstm_1[0][0]                     
__________________________________________________________________________________________________
conv2d_2 (Conv2D)               (None, 1, 33, 32)    2080        conv2d_1[0][0]                   
__________________________________________________________________________________________________
dense_4 (Dense)                 (None, 128, 8)       16          reshape_10[0][0]                 
__________________________________________________________________________________________________
conv2d_3 (Conv2D)               (None, 1, 33, 64)    10304       conv2d_2[0][0]                   
__________________________________________________________________________________________________
dense_5 (Dense)                 (None, 128, 16)      144         dense_4[0][0]                    
__________________________________________________________________________________________________
conv2d_4 (Conv2D)               (None, 1, 33, 128)   65664       conv2d_3[0][0]                   
__________________________________________________________________________________________________
dense_6 (Dense)                 (None, 128, 33)      561         dense_5[0][0]                    
__________________________________________________________________________________________________
reshape_5 (Reshape)             (None, 33, 128)      0           conv2d_4[0][0]                   
__________________________________________________________________________________________________
permute_1 (Permute)             (None, 33, 128)      0           dense_6[0][0]                    
__________________________________________________________________________________________________
add_1 (Add)                     (None, 33, 128)      0           reshape_5[0][0]                  
                                                                 permute_1[0][0]                  
__________________________________________________________________________________________________
reshape_11 (Reshape)            (None, 1, 33, 128)   0           add_1[0][0]                      
__________________________________________________________________________________________________
conv2d_5 (Conv2D)               (None, 1, 33, 32)    32800       reshape_11[0][0]                 
__________________________________________________________________________________________________
conv2d_10 (Conv2D)              (None, 1, 33, 32)    32800       reshape_11[0][0]                 
__________________________________________________________________________________________________
conv2d_6 (Conv2D)               (None, 1, 33, 16)    2064        conv2d_5[0][0]                   
__________________________________________________________________________________________________
conv2d_11 (Conv2D)              (None, 1, 33, 16)    2064        conv2d_10[0][0]                  
__________________________________________________________________________________________________
conv2d_7 (Conv2D)               (None, 1, 33, 8)     648         conv2d_6[0][0]                   
__________________________________________________________________________________________________
conv2d_12 (Conv2D)              (None, 1, 33, 8)     648         conv2d_11[0][0]                  
__________________________________________________________________________________________________
conv2d_8 (Conv2D)               (None, 1, 33, 4)     260         conv2d_7[0][0]                   
__________________________________________________________________________________________________
conv2d_13 (Conv2D)              (None, 1, 33, 4)     260         conv2d_12[0][0]                  
__________________________________________________________________________________________________
conv2d_9 (Conv2D)               (None, 1, 33, 1)     33          conv2d_8[0][0]                   
__________________________________________________________________________________________________
conv2d_14 (Conv2D)              (None, 1, 33, 1)     33          conv2d_13[0][0]                  
__________________________________________________________________________________________________
target_temp (Reshape)           (None, 33)           0           conv2d_9[0][0]                   
__________________________________________________________________________________________________
target_dens (Reshape)           (None, 33)           0           conv2d_14[0][0]                  
==================================================================================================
Total params: 252,075
Trainable params: 252,075
Non-trainable params: 0
__________________________________________________________________________________________________
Epoch 1/100
 - 167s - loss: 0.3422 - target_temp_loss: 0.1085 - target_dens_loss: 0.2
…
